src/MOT/Assets/Models/Reid/osnet_x0_25_msmt17.onnx (onnx, 907169 bytes, 481 tensors)

conv1.bn.bias f4 [16]
00000000: 35f9 c53e 0ed4 403f d18d 3c3e 4c8c 8c3e
00000010: 8bee 313d 5bcd 933e 0c95 a83d 65e9 bb3d
00000020: 2c4f c13e fea7 8a3d 2608 6f3e 4563 833e
00000030: e911 8d3d 97ca d03d 91fc a73d f3c1 3d3e
0.38666692 0.7532357 0.18413474 0.27450788 0.043440383 0.2886761 0.082315534 0.09175376
0.37755716 0.06770323 0.23342952 0.25661674 0.06888182 0.10194891 0.0820247 0.18531017

conv1.bn.running_mean f4 [16]
00000000: af05 d4bf 52cd e93f d14f 2abf 1c27 873f
00000010: 547b b03c a7e0 08bf e29a f93c ff1e 8dbe
00000020: 78e2 8d3f ed3f 18be 053c a43e 0669 a33e
00000030: 9460 5d3b 9183 8abe 84af 2a3d de02 7d3e
-1.6564234 1.8265784 -0.6652804 1.055881 0.021543182 -0.5346779 0.030469362 -0.2756271
1.1084738 -0.14868136 0.3207704 0.31916064 0.003377949 -0.27053502 0.04167129 0.24708125

conv1.bn.running_var f4 [16]
00000000: 4ef3 cb40 04a2 0741 9977 a93f b2c5 d83f
00000010: 2f07 843f 25bb 1a40 0365 c93f f147 0a3f
00000020: fe6f 4540 4769 733f 51d0 d53e 2221 ff3e
00000030: 46bf c53f 8f3b 953f 26f6 303f 4cf1 b63e
6.3734503 8.477055 1.3239623 1.6935332 1.0314692 2.4176724 1.5733951 0.54016024
3.0849605 0.95082515 0.41760495 0.49829966 1.5448997 1.1658801 0.6912559 0.3573097

conv1.bn.weight f4 [16]
00000000: d3d6 8f3e 6082 9f3e e82d 4d3e ceb4 2b3e
00000010: 9efc 2e3e 035d 2b3e 918d 3e3e 970e 0f3e
00000020: b61b 273e d44d 1a3e f9ed f73d 7d14 0c3e
00000030: 9854 2e3e ffc2 1e3e 9a13 083e ae76 033e
0.28093585 0.31154156 0.20037043 0.1676819 0.17088553 0.167347 0.18608691 0.1397041
0.16319165 0.15068752 0.121059366 0.1367969 0.17024457 0.15504073 0.13288727 0.12838241

conv1.conv.weight f4 [16, 3, 7, 7]
00000000: 2568 433c e52e 343b 47b0 cfbb efc0 863b
00000010: 05be ea3c 35fe 00bd 60ab 433c dc2b e5bb
00000020: 0b73 d53b ca2b d5bb 504e 7f3c 8658 223d
00000030: 4e49 c7bc cca8 e8bb 92a9 b7bc f89b 2ebc
00000040: 514b 433c 60b1 803d 42ea b73d 3729 693c
00000050: 8fce 25bc c117 84bb 9873 4a3c 4f9b f73c
00000060: 50a6 953d b704 143e 74a8 6e3d 7acf 543c
00000070: 918e 99bb b1da 4bbb 9471 0d3c a128 f63c
00000080: 284d 843d 3e0e a2bb c2c3 3abc 80cd 9b3b
00000090: 4f87 993b b1c1 2cbc 2141 453b 15f9 a13c
000000a0: 4a76 f0bc 6f6b 813c 26bd 053c 58c7 babb
000000b0: 2faf 33bc 019e 223b fe43 c73c d336 10bd
000000c0: 9fdd 6c3c ce0b 883c c4e6 9f3b d1a7 f23b
000000d0: ac4b 6b3b 87d6 093d 41c3 82bc f970 ea3c
000000e0: 7444 d3ba f674 b83b 9ec7 463c 17d6 903c
000000f0: 6110 583d be09 513c 6b3b d03c be82 823b
00000100: 9d20 5f3c 50ce 3f3d b177 b53d 1d9b 043e
00000110: 1916 723d 1b1c cd3c 8c90 7e3c 0081 d83c
00000120: e4c5 443d b470 b33d ce73 283e d29c 9f3d
00000130: 9600 c73c 59b9 15bc b8a7 ac3c ff0c 073d
00000140: d32f 353d 5278 ac3d b8df 5d3c beb5 4a3b
00000150: 50ac ffba 221a 073c 9870 813c e152 c43b
00000160: 3537 dc3c f9fd cfbb 6013 e13b 6856 3dbb
00000170: 4995 16bc c162 163c 869e 7d3c 10e6 e83c
00000180: abb7 69bc b829 1c3c 35c2 d6bb 5aa7 d5bc
00000190: db24 d0bc 238c 36bc 00b5 253c f666 17bd
000001a0: 99de 223a 09c8 223c 7757 b03c 2901 c73b
000001b0: e4b9 c23c 5642 333d 8907 5e3c 8e6e 953c
000001c0: 8ff3 82bc a9e2 69bc e21b b93b 53d1 4f3d
000001d0: 2edf 933d 3c6c b73c a0ec ab3b 2d0d d23a
000001e0: da81 b53b 84dd 983c 33c3 823d 525c 003e
000001f0: f35a 833d e37b b23c e7e3 1e3b 197e 533c
00000200: ec49 a23c ea0c ce3c d6cb 853d ef1d 883c
00000210: 3b2f 293c d404 8eba bc28 e4bb d7a3 72bc
00000220: cb40 b2bc 3901 ecbb a723 ecbc 3485 a23a
00000230: c309 363b 7e92 2fbc 1369 3dbc b80d d93b
00000240: e922 1d3b ab27 e1bc a63e c83b 3485 cf3c
00000250: 1c7c 92bb 01b9 c339 22af 3638 97a0 b638
00000260: 3a8c f63b dab4 ee3c fa7f 353c d5cb a4bc
00000270: b990 b5bc 6972 17bd 1d17 2ebd 8a13 f4bc
00000280: cc48 a4bc 19ab 763b 2b70 91bc 936b 1fbd
00000290: a553 43bd 473e 3fbd 636c 39bd 915f 18bd
000002a0: 88db 9bbb 2fdd dcbc c1ca 42bd dbcc 65bd
000002b0: a0a6 71bd f8af 06bd 2c00 aabc 0d35 c9bc
000002c0: e2ae 08bd 69cc 3ebd 3ac5 4ebd d4f4 6ebd
000002d0: 6271 4abd 7e7d 20bd 2124 c23c 2be6 9b3c
000002e0: a1f3 65bc 1ea0 1ebc e373 c3bb 222e 34bc
000002f0: 0270 543c d11d ee3c 1d62 7ab9 dfe9 ed3a
00000300: 2fe6 7a3c a5af ff3a e3aa ad3a 2316 293d
00000310: 7ada 873c 3d42 adbb b9e3 11ba 0a31 52bb
00000320: 5798 baba a223 833a 36a7 843b a7fa 87bb
00000330: 62a6 c5bc e3a0 f4bc 3243 30bd 0b5f 34bd
00000340: d25a 11bd 7248 1cbd d12e e1bb 397a 94bc
00000350: ae1a 2ebd c81f 8dbd 4de9 89bd ff99 82bd
00000360: 5b1f 64bd f68e 2fbb e6df 06bc b631 25bd
00000370: ac48 72bd e93a 83bd 7398 0dbd 6c08 d9bc
00000380: 5541 9dbc 7a9c fcbc 5d4f 13bd 8b68 6abd
00000390: f252 8cbd 1fcc 37bd ea65 2fbd 65b2 d23c
000003a0: 1611 c23c 3571 2abc a016 43bc 681c 05bb
000003b0: 19e1 a63a 7ec7 8d3c 177a 5a3c 93dd 22bb
000003c0: 1c5c b7bb f96c 0a3c b441 4d3b fed0 06bc
000003d0: 0a55 f03c fcb1 103c fa9f 4cbc 9595 f13b
000003e0: 4256 753b 99f2 a0bb 74f1 00bc 461a ddba
000003f0: 0507 0cbc ccc7 ddbc a1d3 72bc d8e1 f3bc
0.011926685 0.0027493772 -0.0063381526 0.004112355 0.028655061 -0.03149243 0.011942714 -0.006993754
0.0065139583 -0.006505464 0.015582636 0.039635204 -0.024326947 -0.0071002003 -0.022419725 -0.010657303
0.011919812 0.062838316 0.08980228 0.014231018 -0.010120048 -0.004031152 0.012356661 0.030225424
0.07307112 0.14454924 0.05826612 0.012988919 -0.0046861847 -0.0031105692 0.008633036 0.03004867
0.06460029 -0.0049455455 -0.011399211 0.004754722 0.0046853195 -0.0105442265 0.0030098634 0.019772092
-0.02935328 0.015798299 0.008162772 -0.005700033 -0.01096706 0.0024813416 0.024324413 -0.035208534
0.014457135 0.016607191 0.0048798043 0.007405259 0.0035903258 0.033651855 -0.015962245 0.028618323
-0.0016118423 0.005629177 0.012132553 0.017680211 0.052749995 0.01275867 0.025418958 0.003982871
0.013618615 0.046827614 0.0886072 0.12949796 0.059103105 0.025037816 0.015537392 0.0264287
0.048040286 0.08761731 0.16450426 0.07793583 0.024292272 -0.009138429 0.021076068 0.03297138
0.04423506 0.08421387 0.013542108 0.003093108 -0.0019506309 0.008245977 0.01580076 0.0059913252
0.026881794 -0.0063474146 0.0068687648 -0.0028890613 -0.009190866 0.009178818 0.015479689 0.028430015
-0.014264981 0.009531431 -0.006553913 -0.026080776 -0.025408199 -0.01114181 0.010113955 -0.036963426
0.0006212979 0.009935387 0.021526081 0.0060731363 0.02377028 0.043764435 0.013551601 0.018241193
-0.015985278 -0.014275231 0.005649076 0.050736737 0.072203025 0.022390477 0.0052467138 0.0016025655
0.005539161 0.018660314 0.063848875 0.12535217 0.064138316 0.02178759 0.0024244727 0.012908482
0.01981064 0.025152642 0.06533019 0.016615836 0.010326202 -0.0010835179 -0.0069628637 -0.01480957
-0.021759411 -0.007202294 -0.028825594 0.0012399317 0.0027776815 -0.010716079 -0.011560696 0.00662395
0.0023977107 -0.027484735 0.006110984 0.02533207 -0.0044703614 0.00037331137 4.3555287e-05 8.7083485e-05
0.0075240405 0.029138971 0.011077875 -0.020116726 -0.022163736 -0.036974344 -0.04250251 -0.029794473
-0.020054244 0.0037638603 -0.017753681 -0.03892095 -0.04768719 -0.04669025 -0.04526938 -0.037200514
-0.004756395 -0.026960937 -0.047556642 -0.05610357 -0.058996797 -0.03288266 -0.020752035 -0.02456143
-0.033369906 -0.04658166 -0.05048106 -0.058338955 -0.049424537 -0.03918218 0.023698868 0.019030651
-0.014035136 -0.00968173 -0.0059647425 -0.010997327 0.012966158 0.029066952 -0.00023878408 0.0018151364
0.015313669 0.0019507302 0.0013249781 0.041280877 0.01658367 -0.0052874372 -0.00055652444 -0.0032072687
-0.0014236075 0.0010005126 0.0040482534 -0.004149753 -0.02412719 -0.029861873 -0.043032832 -0.044035953
-0.035487004 -0.038155027 -0.006872036 -0.018124687 -0.042505912 -0.068908274 -0.06733952 -0.06377029
-0.055693965 -0.0026788092 -0.0082320925 -0.04033061 -0.059151337 -0.064077206 -0.034569215 -0.026493274
-0.019196192 -0.030836333 -0.03596436 -0.057228606 -0.06851758 -0.0448724 -0.042821802 0.02571983
0.023689788 -0.010402967 -0.01190725 -0.002031112 0.0012731879 0.01730704 0.013334773 -0.0024851307
-0.005595697 0.008448833 0.003131968 -0.008228539 0.029337425 0.008831497 -0.012489313 0.007372568
0.0037435447 -0.0049117324 -0.007870067 -0.0016868792 -0.008546595 -0.02707281 -0.014820964 -0.029770777

conv2.0.conv1.bn.bias f4 [16]
00000000: 220f febd f8a5 e33e 9ee5 3e3e 3eb0 da3d
00000010: 49fe 8bbe 113c 0a3e c21e d83e cf78 33bd
00000020: 46f1 1dbe b446 b3bd b6a4 64be 4be4 c63e
00000030: d590 c43e 4b6d 47be 6b89 71be 59b5 d4bd
-0.1240523 0.44462562 0.1864228 0.10678147 -0.27342442 0.13499476 0.42210966 -0.043816384
-0.1542407 -0.0875372 -0.22328457 0.3884605 0.38391748 -0.19475286 -0.23587577 -0.10386152

conv2.0.conv1.bn.running_mean f4 [16]
00000000: e997 13be e25d efbd f4d8 533e e0eb 8ebd
00000010: 2e40 393e 9f1d da3e d198 fc3c 99f7 61bd
00000020: e0b2 ac3c 0c68 b6be f374 e7be 8ee2 d7bd
00000030: de6e 363e bb90 053e af78 7ebe 6477 fcbd
-0.14413418 -0.116878286 0.2068823 -0.06978583 0.18090889 0.42600724 0.030834587 -0.05516777
0.021081388 -0.35626256 -0.45206413 -0.10541259 0.1781573 0.13043492 -0.24850725 -0.123274595

conv2.0.conv1.bn.running_var f4 [16]
00000000: e150 ac3b 3714 b53c ed37 3d3b 67ad 973a
00000010: ef1e 2f3c 4112 823b f3f1 6c3c 01ba 2b3b
00000020: 54b2 eb3b e2b3 393b b3ee 1d3c bf4b 0b3d
00000030: 1789 3e3c 41c2 6f3a 9486 4e3b bd96 933b
0.005258665 0.022104366 0.0028872446 0.0011572064 0.0106885275 0.003969461 0.014461982 0.0026203396
0.007192889 0.0028335978 0.00963943 0.034007784 0.011629364 0.00091460726 0.003151332 0.0045040534

conv2.0.conv1.bn.weight f4 [16]
00000000: ff08 a43e 6d7f 543e c8df 203e 619a 9f3d
00000010: 5b69 cb3e d915 013e d40c 473e d222 2f3e
00000020: c7b7 8e3e 20f9 643e 6f99 bb3e b7fe 543e
00000030: 7f42 0c3e 8a49 343e 5720 963e 1191 903e
0.32038113 0.20751734 0.15710366 0.07793117 0.39728817 0.1260599 0.19438487 0.17103127
0.27874586 0.22360659 0.36640498 0.20800291 0.13697241 0.17606178 0.29321548 0.28235677

conv2.0.conv1.conv.weight f4 [16, 16, 1, 1]
00000000: 3746 03bd daec 03bd 34a4 303b 3cc2 403a
00000010: cf50 363c dc0d f83b 2d01 a7bd 3b75 c6bd
00000020: b903 25ba 87c8 693d a4c8 6bbd 9e45 1b3c
00000030: d32d 71be 5ce8 4bbd df79 223c 3fb6 abbd
00000040: fe37 ed3d 65cc 3cbe cd74 a03e 1a03 c6be
00000050: 9bbd 113c 26f8 c93c 5629 a5ba fe22 7bbc
00000060: b1d8 e03d 7ae6 14bc 4c5e eabc c959 e7bc
00000070: 53e7 cb3a 1fc1 19bb 45e5 71ba 3417 77bc
00000080: d54b 733b 4bfc 1ebd f072 a83d 5a2c 793e
00000090: 128b 04bc 1457 873d ba38 01bc 1b3e cdbc
000000a0: c8a5 993e de97 ed3a bbe1 b9ba fca4 6b3c
000000b0: fea5 ec3b 9521 253b d72d 513c 5e01 5a3a
000000c0: 2865 7e3c b25f b3bd aaf9 75bc fa81 443b
000000d0: 85e8 ffbc 8358 823c 935d 943d d7d6 70bd
000000e0: bbfb 04bd ca9c b9bd 164b 0bbc ef4b 053d
000000f0: bcb5 083a 270a b5bd 4749 8e3d 3238 8c3d
00000100: 197b c0bd de14 8c3e 48aa 1fbd 21d1 60bd
00000110: 0062 ac3c 95fb 4cbd 412e 953c 7a98 593c
00000120: f7eb 993d 0f32 23bb e2b6 40bb a60d 39bc
00000130: dfa1 883c 3fad b3bb 85f4 cb3c cfad dd3a
00000140: 275b 903e 5c39 893e 2456 d63a 26b0 41bb
00000150: c308 ca3c 944d 553d 7830 b2ba b1a3 053d
00000160: 788c 883c b392 813c 5072 133d 691d 383d
00000170: 4a79 d73c df9c 44ba 8dc9 043d de23 143d
00000180: d4a8 d43d e112 8dbd 87fb 3e3d 0fa7 0b3e
00000190: 7ef8 3c3a b2dc e33e 7f53 23ba 5162 28bd
000001a0: 59e6 9dbe f006 2ebc 8ec2 d0bc d314 07bd
000001b0: f877 1a3c 4e42 2a39 c473 403c 42bb 8cbc
000001c0: f524 53ba a2a0 19be a874 b43d e53d 81bd
000001d0: 995a a7ba 8eda f03d 22a2 dc3c 9902 69bb
000001e0: 5eaa 6d3d 5fc6 de3b 34b3 4e3c 547a 11bc
000001f0: 8c3b 33bb 1d5b d03c 479b c6bc 9952 91bb
00000200: 9626 b5bd f399 5b3e 8294 89bd 3117 c5bd
00000210: 5556 983c 5449 4a3d dad1 153c f86b fb3c
00000220: c474 6ebe c669 1ebc 5063 3abc b69e 0c3c
00000230: 41be 2d3c 09ef adb8 cf05 163c 417d 17bc
00000240: 4b7d 95be 8768 92be 9e06 14bd 29c4 49bd
00000250: f3b3 4f3d a17c 513b 28b4 9cbc 7057 16be
00000260: 4f40 4b3d 04ab 31bc e759 323d 0845 2f3c
00000270: 8b61 093d 6c72 953a e61b cf3c b7ae fc3c
00000280: de5e 89be 4e77 87be 4ec7 61bc b03b 10bd
00000290: 5e55 dabd a166 51bd 52e7 893d 1d7d 45bd
000002a0: 01d3 43bd 48c5 fdbd 0796 c83c 8341 76bc
000002b0: 48fc a6bd 5ade 2fbe 574f 963c 1dd9 073d
000002c0: 4906 bb3e 4c99 96be 57d5 14be 2d78 af3e
000002d0: fca5 803c a266 fabd 5aec 11bc 95d5 d0bb
000002e0: 207d 5abd f1de e8bb 212b 23bd 8a88 25bd
000002f0: 5932 fb3b a473 5cbb 71dd 5dbc 73cd 19bd
00000300: c1bd b6bd 5ca9 883e 0e6f 0c3d 3722 003e
00000310: fab8 2c3b 9e5e 6fbd 44c1 6f3c 4218 59bd
00000320: ea1d 6b3d 8f2e f1bc be96 b8bc c22c 8bbd
00000330: 51ef 693c 45c1 ddbc 58ba 003c 7584 00bd
00000340: b454 be3d d8b0 d63b 1263 c13d e53c af3c
00000350: 58a0 113b df72 e23d 75d8 88bc 0f80 8cbc
00000360: 4b2a 0f3e 999d 82bc d5b7 9bbc f2a0 57bd
00000370: a3c8 fe3b 0b30 2c3c ae54 84bc 75f3 a1bc
00000380: 11f9 8fbe 1978 1bbe ebfc b43c 39dd 903d
00000390: 6045 8abc aa5e 05bd e084 fdbc f974 64bc
000003a0: 096c 1ebd 784f 7f3c 6622 c23c 3386 1e3c
000003b0: 19fa 79bc b54b 463d b2e9 47bd b41d 9e3b
000003c0: 2e99 4fbd 266d f4bc c361 0cbb 051d cdbb
000003d0: f065 50be 59d3 043c b3ff 93bd 733c 1cbd
000003e0: 92fc 883b 10a2 2ebc 4750 5bbd a72e 1b3c
000003f0: 4feb 053d 0fb4 3a3d 17df ddbd 478d e5bc
-0.032049384 -0.0322083 0.0026953341 0.0007353162 0.011127665 0.0075700115 -0.08154521 -0.09690329
-0.0006294805 0.057076003 -0.057564393 0.009477047 -0.23552637 -0.049782142 0.009916752 -0.0838437
0.11582945 -0.18437345 0.31339112 -0.3867424 0.008895303 0.02465446 -0.001260082 -0.015328167
0.109788306 -0.009088153 -0.028609417 -0.028241055 0.0015556611 -0.0023461056 -0.0009227584 -0.015081216
0.0037124057 -0.038814824 0.082250476 0.24333325 -0.008089798 0.06608406 -0.00788706 -0.025054028
0.30009294 0.0018126925 -0.0014181653 0.014382597 0.0072219362 0.0025197018 0.012767277 0.0008316244
0.015527047 -0.08758487 -0.015013138 0.0029984699 -0.031238804 0.015911346 0.0724441 -0.058798637
-0.03246663 -0.09063108 -0.008501789 0.03254312 0.0005215069 -0.08839827 0.0694757 0.06846656
-0.09398479 0.2735967 -0.038980752 -0.05488694 0.021042824 -0.050044615 0.018210532 0.013280982
0.0751571 -0.0024901663 -0.0029405882 -0.011294758 0.016678749 -0.005483299 0.02489687 0.0016912761
0.28194544 0.26801574 0.0016352576 -0.0029554456 0.024662381 0.052075937 -0.0013594767 0.03262681
0.016668543 0.015817022 0.03599769 0.044949923 0.026302952 -0.0007500182 0.032418776 0.036167018
0.10383764 -0.068883665 0.046626594 0.13637947 0.0007208659 0.44504315 -0.00062303984 -0.041109387
-0.30839804 -0.010621771 -0.025483396 -0.032978844 0.009428017 0.00016237164 0.011746351 -0.017179135
-0.0008054518 -0.15002683 0.08811313 -0.063106336 -0.0012768089 0.11760436 0.02693278 -0.0035554527
0.058023803 0.00679855 0.012615968 -0.008879263 -0.0027348725 0.025434071 -0.024243964 -0.0044348952
-0.0884525 0.21445446 -0.06717779 -0.09623564 0.018595854 0.049386337 0.009144271 0.030691132
-0.2328673 -0.009668773 -0.011376217 0.0085827615 0.010604442 -8.2938066e-05 0.009156658 -0.009246171
-0.29197153 -0.28595373 -0.036139123 -0.04925934 0.050708722 0.0031965154 -0.019128874 -0.14681792
0.049621876 -0.010843996 0.04354277 0.010697611 0.03354029 0.0011401898 0.025281858 0.03084503
-0.2683019 -0.2645821 -0.013780428 -0.035213172 -0.10660814 -0.051123265 0.06733574 -0.04821502
-0.04780865 -0.12391144 0.024485601 -0.015030268 -0.081535876 -0.17174664 0.018348379 0.03316604
0.36528233 -0.2941383 -0.14534508 0.34271374 0.015704148 -0.12226607 -0.008906448 -0.006373117
-0.053341985 -0.007106655 -0.039836053 -0.040413417 0.007665914 -0.0033638263 -0.013541565 -0.037549447
-0.089229114 0.2669171 0.034285598 0.12513052 0.0026355372 -0.058439843 0.01463348 -0.05300165
0.057401575 -0.029441146 -0.022532817 -0.06795646 0.014278249 -0.027069697 0.007856928 -0.03137632
0.092934996 0.006551843 0.09442724 0.021391341 0.0022220816 0.11057066 -0.016704777 -0.017150907
0.13980977 -0.015944289 -0.019008556 -0.052643724 0.0077753826 0.010509501 -0.01615366 -0.01976941
-0.2811971 -0.15182532 0.022093257 0.07073445 -0.016878784 -0.03256098 -0.030947149 -0.013943904
-0.03867725 0.015582912 0.023698043 0.00967555 -0.015257382 0.048412044 -0.048806854 0.004825318
-0.050683193 -0.029837202 -0.0021420575 -0.006259563 -0.20351386 0.00810703 -0.07226505 -0.038143586
0.0041804994 -0.010658756 -0.053543355 0.009471572 0.03269511 0.045581874 -0.10833567 -0.028021468

conv2.0.conv2a.bn.bias f4 [16]
00000000: 21d9 ac3c fdd5 10bc ceb1 97b7 f5ce 153e
00000010: 60e6 733d 9acc be3d 62a9 33bc d3dc ddb8
00000020: a7cb 7fbb 3f63 01bd 3d3f efbc 0bbe 823c
00000030: 10c8 6fba 9674 74bd f28c 5f38 9925 9bbc
0.021099629 -0.008840081 -1.80834e-05 0.14629729 0.059545875 0.093163684 -0.010965677 -0.00010579233
-0.0039031298 -0.03158879 -0.029204959 0.01595976 -0.0009146938 -0.059681498 5.329861e-05 -0.018938826

conv2.0.conv2a.bn.running_mean f4 [16]
00000000: 50e1 b83a dd15 98b9 0400 0080 709c 733b
00000010: 5580 9eba 8789 c33a a309 6bb6 0300 0000
00000020: b236 e0b8 9b19 b3bc 87b5 6abb 0400 0000
00000030: df81 a318 7cac 9abb 997d 00bb b518 88b8
0.0014105234 -0.0002900799 -6e-45 0.0037172101 -0.0012092689 0.0014918306 -3.5023338e-06 4e-45
-0.0001069134 -0.021862796 -0.0035813765 6e-45 4.226565e-24 -0.004720269 -0.0019606112 -6.4895874e-05

conv2.0.conv2a.bn.running_var f4 [16]
00000000: d4c4 6b37 e2d8 9336 0400 0000 ccae df3a
00000010: a7d9 2538 833a cc36 d6c4 1037 0400 0000
00000020: cfea 5f36 77ae d937 7d38 d036 0400 0000
00000030: 0400 0000 b301 bb38 fdec 2736 ea0f 2538
1.4052919e-05 4.40619e-06 6e-45 0.0017065643 3.954177e-05 6.0864854e-06 8.628898e-06 6e-45
3.3366266e-06 2.5949657e-05 6.205459e-06 6e-45 6e-45 8.917171e-05 2.5022885e-06 3.9353887e-05

conv2.0.conv2a.bn.weight f4 [16]
00000000: dcd0 d33d 1e8a fd3d 6052 de38 9b79 943e
00000010: a107 513d 096c 573e 76bd eb3d 5126 0000
00000020: 85af a63d 4c0c 0c3e dadb fd3d 1d08 0080
00000030: aa27 db3a aa97 9b3e 3ad3 b33d 4de1 243e
0.10342571 0.123798594 0.000106011285 0.28999028 0.051032666 0.21037306 0.11510746 1.3745e-41
0.081389464 0.13676566 0.12395449 -2.91e-42 0.0016720195 0.30389148 0.08780523 0.1610157

conv2.0.conv2a.conv1.weight f4 [16, 16, 1, 1]
00000000: 1fb1 ac3c 39b5 81bd d8d0 4ebd eb22 90bc
00000010: f569 61bd ecb7 2bbd ef4d fbbc 1568 aeba
00000020: 105c a13c 8a3e 61bd 5327 3e3d e32c bcbc
00000030: f1b9 2cbd 80b8 b83c cc38 2bbd 2529 023c
00000040: afb5 dd3c c623 adbc e5b9 953d b888 5bbc
00000050: 3940 5f3b 5ea2 81bd 3291 413d d182 b0bc
00000060: a506 d53b 6ff0 bf3d 2109 103d 9ad7 32bd
00000070: 8156 9dbd cb61 983c ce48 1f3c 5e8d f73c
00000080: 4e0e 0080 0d1e 082b d493 d398 d403 0080
00000090: 0e22 0080 d9ed 5b21 c42e 8daa cf8d 3b8e
000000a0: ec14 0000 7c09 0000 6c0b 0000 705b a224
000000b0: c063 3098 3bbd 4d15 681e 0080 f213 0080
000000c0: dbe1 163c a4a1 bebd 65a6 853c 3240 053d
000000d0: de1a 903c e293 18be fcd9 7a3c 49ee ce3c
000000e0: f3d2 c23c 6ef4 373d 460a f23d 1d09 64be
000000f0: 23f4 023e ccc6 d9bc 9367 9b3d 980c 613c
00000100: f7c9 093d e3fc 80be aa92 d4bb 48cb 3c3d
00000110: 33e0 8bbd 85a2 db3c a363 b9bd be7d 8d3d
00000120: 4982 e63c 502d bf3c 94c8 273d cf21 3d3e
00000130: 123d 0e3e b00f ea3d f81f 983d 4696 ab3c
00000140: 0c6a ad3d 5856 80bd c9eb a7bb 533f 4abc
00000150: 579a 2bbc bf35 d93d f14f 04bd df8c 3e3c
00000160: 12d1 aebc 7884 213d f299 6f3c 9703 9f3c
00000170: 7471 d1bc 1ef8 9cbb 9f35 e9bc 2e6d aebd
00000180: af26 02bd 6e7e e0bb a8d3 a83c 641f 51b9
00000190: 5aec 93bb d694 cd3d 3cd8 563a 798f 163d
000001a0: d0fd 9cbc ce68 a2bc 94d7 20bd 3b92 183c
000001b0: b104 3dbd 8dd5 483c 767e de3b 3dd0 a6bc
000001c0: db32 0000 7b36 0080 8732 0080 281b 0000
000001d0: b41c 0000 b30a 0080 7e1d 0000 cd37 0000
000001e0: 7432 0000 3d38 0080 a434 0000 8c1e 0080
000001f0: a429 0000 ae1f 0080 8f24 0000 5e31 0080
00000200: 66c6 5c3d b1c6 853c 2006 093c fd30 abbc
00000210: b164 18bd 700b 79bd 259f 4a3d 6d3d a8bc
00000220: 0636 d93c 254f 563c e3c5 96bc 170b d9bc
00000230: bda5 1e3d 05da 08bc ee51 39bb da82 0c3d
00000240: ab64 a3bc eb44 a73d 8cdf 983c d4ab 013d
00000250: c1bc b6ba c65f cabc 3ad3 123d 5c96 1fbb
00000260: 49e9 b43c 3308 323d e775 75bd 9f8f fe3c
00000270: 3025 a33d 3cb8 57bc ecd5 c0bc 1091 8abc
00000280: 6e13 0b3d d06b ddbc 3bc8 6dbd a59c 80bc
00000290: dc38 473c 4aac 79bd 39c8 50bc cceb 0bbd
000002a0: ce43 dbbb 4bc4 79bd bf82 9f3c 9928 3e3c
000002b0: 9259 83bd 8191 49bb 8754 2f3c 36f6 203d
000002c0: 9416 0080 ee1c 0000 dd03 0000 9401 0000
000002d0: 210d 0000 cb0a 0080 3917 0000 1c04 0080
000002e0: 6324 0000 c206 0080 1201 0080 8520 0080
000002f0: 0b1e 0000 7e10 0080 9d03 0080 1214 0000
00000300: 89c0 901c 23b2 95b2 eecd b3ae 7855 5a21
00000310: 7729 9caa 2ace 96ad d1e5 6cb1 b3c8 c8a4
00000320: 52ec 682d 39ee 3c29 89a2 2c20 139b 14b6
00000330: c5bf e034 1b2f 24a2 1608 cb04 830d 0e16
00000340: ecb6 b6ba eb5e dd3d c7c5 953c 2471 573c
00000350: d297 193e 61ff 4d3d 320a 85be d1eb a13b
00000360: 7c4f 82be 1af6 4d3d 01a6 c83c 7408 8bbd
00000370: acd8 f03d 4921 8bbd 22cc 50bc 42b1 f3b8
00000380: 300d 3abb 913c f23c a41c f73c 2080 47bd
00000390: 31fe 3d3d 9ac1 44bd a083 d7bb 8d33 95bc
000003a0: 7882 00bc 30b4 653d d55a 0e3d 65c1 433d
000003b0: 5537 3fba ce2e 73bb 6bf8 0e3d e26c ebbc
000003c0: 5100 443a 88bf 433e a974 a4bc 3936 48bc
000003d0: 64ba c1bc c7ca 73bc 51b9 43bd c87f 15bd
000003e0: 15ba 72bc a89b 7a3b 8685 b7bc 4f71 00be
000003f0: 94f3 bcbc 454b cabc ded5 6abd 64c8 e83c
0.021080552 -0.063333936 -0.050492138 -0.017594775 -0.05503269 -0.04192345 -0.03067681 -0.0013306165
0.01969722 -0.054991283 0.04642422 -0.022970622 -0.042169515 0.022548914 -0.041802213 0.00794438
0.027064173 -0.021135222 0.07310847 -0.0133992955 0.003406538 -0.06329797 0.04725761 -0.021546753
0.006501036 0.09372031 0.035164956 -0.043662645 -0.07682515 0.018601319 0.009721948 0.030218776
-5.132e-42 4.835861e-13 -5.469149e-24 -1.373e-42 -1.2217e-41 7.4514875e-19 -2.5079082e-13 -2.3117808e-30
7.505e-42 3.402e-42 4.097e-42 7.04112e-17 -2.2797828e-24 4.1548697e-26 -1.0908e-41 -7.155e-42
0.009209122 -0.09308174 0.016314695 0.032531925 0.017590936 -0.14900163 0.015310761 0.025260108
0.023782229 0.04491084 0.11818366 -0.22269101 0.12788443 -0.026584052 0.075881146 0.013735913
0.033639874 -0.25192937 -0.0064872103 0.0460923 -0.06829872 0.026810894 -0.09052207 0.06908749
0.028138297 0.023337036 0.04096277 0.18469928 0.13890484 0.114287734 0.074279726 0.02094568
0.084674925 -0.06266469 -0.0051245433 -0.012344199 -0.010473809 0.106059544 -0.0323028 0.011630266
-0.021339927 0.039432973 0.014624106 0.019410891 -0.025566794 -0.00479032 -0.028467951 -0.08516918
-0.031775173 -0.006851009 0.020608738 -0.00019943487 -0.0045142593 0.10038154 0.00081956736 0.03675792
-0.019163996 -0.019825365 -0.03926809 0.009312208 -0.046147052 0.012257946 0.0067899777 -0.020362968
1.8244e-41 -1.9544e-41 -1.8126e-41 9.742e-42 1.0297e-41 -3.838e-42 1.058e-41 2.0018e-41
1.8099e-41 -2.0174e-41 1.8884e-41 -1.0958e-41 1.4938e-41 -1.1365e-41 1.3115e-41 -1.771e-41
0.053900145 0.016330095 0.008363277 -0.020897383 -0.0372054 -0.060801923 0.04946818 -0.020537103
0.026515018 0.013080393 -0.018404907 -0.026494546 0.03873228 -0.008352761 -0.0028277594 0.034304477
-0.019945463 0.08167442 0.018661283 0.03165801 -0.0013941751 -0.024703871 0.035845973 -0.0024351096
0.022083895 0.04346485 -0.059926894 0.031074343 0.07966077 -0.0131664835 -0.023539506 -0.016914874
0.033954076 -0.027028948 -0.058052283 -0.015699694 0.012159552 -0.060955323 -0.012743049 -0.03416042
-0.0066914326 -0.060978215 0.019471524 0.011606359 -0.064135686 -0.0030756893 0.010701305 0.039297305
-8.1e-42 1.0378e-41 1.386e-42 5.66e-43 4.71e-42 -3.872e-42 8.331e-42 -1.474e-42
1.3053e-41 -2.424e-42 -3.84e-43 -1.1666e-41 1.0777e-41 -5.916e-42 -1.296e-42 7.2e-42
9.57889e-22 -1.742689e-08 -8.176558e-11 7.397439e-19 -2.773994e-13 -1.7144581e-11 -3.4473155e-09 -8.707617e-17
1.3240147e-11 4.195101e-14 1.4622745e-19 -2.2143984e-06 4.1862782e-07 -2.2251082e-18 4.7732496e-36 1.1474932e-25
-0.0013940013 0.1080912 0.018282784 0.013149533 0.14999321 0.050292376 -0.2598434 0.0049414416
-0.25451267 0.05028353 0.02449322 -0.06788722 0.11760077 -0.06793458 -0.012743982 -0.0001162016
-0.0028389208 0.029569896 0.030165024 -0.048706174 0.046384994 -0.048036195 -0.00657697 -0.018213058
-0.007843606 0.056080043 0.034754593 0.047791857 -0.0007294317 -0.0037106755 0.03490488 -0.028738443
0.0007476854 0.19116032 -0.02007516 -0.012219959 -0.023648448 -0.014879889 -0.047784153 -0.036498815
-0.014814873 0.003823975 -0.022402536 -0.12543224 -0.023065366 -0.024694094 -0.057332866 0.028415866

conv2.0.conv2a.conv2.weight f4 [16, 1, 3, 3]
00000000: 85f1 bb3d 7437 76bd ac6c b23d a791 02bd
00000010: e2c8 3ebe 9483 06bd 4424 903d 2466 17bd
00000020: 59bf c33d 01cd c83b e970 b83d d840 bf3c
00000030: 6b37 e53c 99c6 9e3d b0d6 1d3d 48f0 27bd
00000040: 7b3f 14be 0fbc 90bd 4bed ea88 c68d 0280
00000050: 221c 0000 104d ac81 2915 0000 6504 0000
00000060: 4c6b 8782 9e14 0000 3c20 0000 54f1 4e3d
00000070: 4b23 473f a876 d13d 407f 663c e09e 4abe
00000080: 673f 16bc 53c7 ce3b 6b5e 3bbf b599 50bd
00000090: b2fb a8bc 25c5 a13c 1401 ecbc b41a bc3c
000000a0: 8fb9 b43d aae7 2f3d c9b0 8fbb 0a5a 033d
000000b0: 9357 aabc 45aa 51bd bd3e 2f3d d23f 48bd
000000c0: 11f5 29bc ece5 5a3e 8439 dcbd d639 37bd
000000d0: f525 b3bc 29cc 03bd 0a00 853d 08f6 d1bc
000000e0: 2a75 36bd d97c 033e 80f4 dabc d4be 93bd
000000f0: 7cf8 043d ef97 febc 25b1 24bd 8b23 0000
00000100: 892f 0080 4a2a 0080 9532 0000 c426 0080
00000110: 8e2b 0000 2928 0000 521e 0080 8226 0000
00000120: f2e2 453d e73d 143c 7053 bdbc 37c7 5e3d
00000130: 71c1 dbbc 99e7 d5bd b84d 433d 9cce 1b3d
00000140: b3c8 40bd 5137 8fbd b5fc 593c 2427 99bd
00000150: 9c2c 11bd 3eb1 463d 16cc 5abd e929 3cbd
00000160: 1472 463d 0a51 8fbd f655 473d 32a4 f3bc
00000170: 186f 913d 4d3d 253d e6e8 ccbd e0f9 053d
00000180: 1c0d 763d fd8b b2bd 68fa 0c3d 6e07 0000
00000190: 051e 0000 550e 0000 b410 0080 eb0f 0000
000001a0: b522 0000 b211 0080 0013 0000 cc19 0000
000001b0: 58c3 9b17 9cfb a410 6600 f315 4af7 1919
000001c0: b268 f018 1b8c 8919 5997 70a2 b63e 48a2
000001d0: 3f76 84a0 af46 02bd da7d 383d 5d38 e2bc
000001e0: afb8 0e3d 7896 d43d a2f1 3c3d 28ed 4ebd
000001f0: a953 783d 7290 37bd 7d4a dc3b dfc9 9dbd
00000200: fbcb 6abc cf84 8f3d d9d6 b0bd 1305 38bc
00000210: 9446 4c3d d192 20bd eb64 ca3c 9105 ef3d
00000220: c4ec 623a c55b 03be 5b81 1f3e 0dbf d83b
00000230: 580c 18be 47cd c43d 9aaf 0f3d 796d d7bd
0.091769256 -0.060111478 0.08712134 -0.031877186 -0.18631318 -0.032840326 0.07038167 -0.036962643
0.09557981 0.006127954 0.09005911 0.02334635 0.027980527 0.07752723 0.03853482 -0.041000634
-0.14477341 -0.07067119 -1.413915e-33 -2.3453e-40 1.0092e-41 -6.32934e-38 7.591e-42 1.576e-42
-1.9898053e-37 7.396e-42 1.1564e-41 0.050523117 0.7778823 0.1022771 0.014068425 -0.19787169
-0.00917039 0.0063103824 -0.73190945 -0.050927836 -0.02062783 0.019747326 -0.028809108 0.022961952
0.08824455 0.04294554 -0.004385088 0.03206829 -0.020793712 -0.051187772 0.04278444 -0.04888899
-0.01037337 0.2137677 -0.10753158 -0.04473289 -0.021868685 -0.032177124 0.06494148 -0.025630012
-0.04454533 0.12840594 -0.026727915 -0.07214132 0.032463536 -0.031078307 -0.040208 1.275e-41
-1.7052e-41 -1.517e-41 1.8145e-41 -1.3906e-41 1.5624e-41 1.4407e-41 -1.0877e-41 1.3814e-41
0.048312135 0.009047962 -0.023111075 0.054389205 -0.026825638 -0.10444564 0.04768154 0.038038835
-0.0470664 -0.06992973 0.013304879 -0.074781686 -0.035442933 0.048508875 -0.053417288 -0.045938406
0.048448637 -0.06997879 0.048665963 -0.02974138 0.071012676 0.040341664 -0.10005359 0.032709002
0.060071096 -0.08718107 0.034418494 2.665e-42 1.0769e-41 5.141e-42 -5.992e-42 5.71e-42
1.245e-41 -6.348e-42 6.816e-42 9.254e-42 1.0065952e-24 6.507426e-29 9.814755e-26 7.959854e-24
6.214426e-24 1.4222056e-23 -3.2606188e-18 -2.7138253e-18 -2.2439919e-19 -0.03180569 0.045041896 -0.027614767
0.034844097 0.10380262 0.046128877 -0.05051914 0.06062666 -0.04481549 0.006722747 -0.077045195
-0.014330859 0.07007753 -0.08634729 -0.011231679 0.049871996 -0.039202515 0.024706325 0.116709836
0.00086564966 -0.12827976 0.15576689 0.006614572 -0.14848459 0.09609466 0.035079576 -0.10518927

conv2.0.conv2b.0.bn.bias f4 [16]
00000000: 82b8 a63d 48ee 043d 5f4c 6dbc 2333 293d
00000010: ecf9 45bc b4bc 873d 7170 47bd 8d05 293c
00000020: 73ba c13d 7608 173e b5e8 163e 17be af3d
00000030: 78f2 aa3d 423a 263e c8f7 283d 2832 06bd
0.08140661 0.032453805 -0.01448354 0.041308533 -0.012083512 0.06627789 -0.048691217 0.010316265
0.094593905 0.14749321 0.14737208 0.08581179 0.083470285 0.16233161 0.041251928 -0.032762676

conv2.0.conv2b.0.bn.running_mean f4 [16]
00000000: 4327 ffb7 683b 33b7 26ee 743a 12b9 7bbb
00000010: 1cfc 5bb8 bf96 96b8 ff78 e839 1f1b 6e3b
00000020: 4706 5b3b 0736 18ba 8b18 2d3b a78d 823a
00000030: 0045 74b9 08e0 0d3b 5809 55ba d987 febb
-3.0416651e-05 -1.0683063e-05 0.0009343348 -0.003840987 -5.2448464e-05 -7.180636e-05 0.00044340637 0.0036332083
0.003342049 -0.00058063905 0.0026412334 0.0009960429 -0.00023295358 0.0021648426 -0.00081266975 -0.007767659

conv2.0.conv2b.0.bn.running_var f4 [16]
00000000: dfc6 1f37 1b47 2137 b12f 2438 0f12 3737
00000010: df6a 6e36 9eaa 4338 8651 7236 39e9 bd36
00000020: 5a70 9c37 f703 e537 1639 bd37 a236 0f38
00000030: aa8d 2438 2e6c e038 6f95 f537 6816 b938
9.523442e-06 9.612903e-06 3.9145063e-05 1.0911855e-05 3.552697e-06 4.6650523e-05 3.6108263e-06 5.6597896e-06
1.8648967e-05 2.7300774e-05 2.2557138e-05 3.4144738e-05 3.9232582e-05 0.000107013024 2.9275861e-05 8.825661e-05

conv2.0.conv2b.0.bn.weight f4 [16]
00000000: 97f3 bc3d cf1f e13d c01e 2f3e a410 b83d
00000010: 6133 1e3e ca39 ee3d 6aa7 ee3d 061b 003e
00000020: e916 163e 2379 d23d 1985 da3d fcb1 c53d
00000030: f53e 053e 3e47 163e ef0d 1c3e de7c 5d3e
0.092261486 0.10992395 0.17101574 0.08987549 0.15449287 0.11632116 0.116530254 0.12510309
0.14657177 0.10277011 0.106699176 0.096530885 0.13012297 0.14675614 0.1523969 0.21629664

conv2.0.conv2b.0.conv1.weight f4 [16, 16, 1, 1]
00000000: 5a08 873b f73c 07be c954 89bc 36ed a33b
00000010: b85f 8e3c 7d69 2d3d ab45 453d 4a05 06bd
00000020: 6401 583d 4f80 d438 6333 a0bb 908e 9b3d
00000030: f26b 433c f9f0 e53c d758 de3c 727e fabb
00000040: a041 353d 65f0 b33c dd62 5dbc b310 e9bd
00000050: b9df 51ba 65a3 8a3d 5348 b4bc 0c49 05bb
00000060: d1fd bf3c 160b 0b3b 3b7a 8dbd ff81 793d
00000070: ab70 40bd 0b1f a93c 4ede 393c be04 653d
00000080: 8fb3 88bc 93cc f9bd a212 73bd e00e 763c
00000090: ff2a 26bd 7ea6 28bd b0e9 ea3d 97ce c5bd
000000a0: a433 8c3d 6f9a ddbc 2e48 7fbc 24af 9b3d
000000b0: 5108 5a3c 2968 14bd 6e56 8dbd b611 ecbc
000000c0: f38b cabc cd6e 1a3d 1bf7 98bd 9c43 b03c
000000d0: ca0e 353d 983b 1b3d a443 873d e55d dfbb
000000e0: 8701 ddbc 8c62 0f3d 69dd 573d 9967 16bd
000000f0: 25cf a93b 921e a3bc d1c1 6cb9 8f20 1ebd
00000100: 7273 b9bc 153f 0a3e a6f8 d43c 94a0 293c
00000110: 135c 5ebc 852c 39bb 8cff b13c 6431 9abd
00000120: e141 17bc 8061 d5bc d756 23bd bb66 edbd
00000130: bd4e c6bc 6409 5fbd 112f f4bc 9e32 8abc
00000140: b875 0bbd 7007 c9bd eb25 c3bd f991 88bb
00000150: 4471 a5bb 9dcc 79bc 7679 533e 0126 bdbb
00000160: 57df 843c ac06 01bd aecb 3bbd 3e0d 6bbc
00000170: 4068 d6bc f0c4 8f3c 5972 90bc 6fd0 573c
00000180: feab ed3c b3cc cd3c 83b4 6e3d ae66 d8bb
00000190: cffe 3abd 402f 0e3d ee34 a33b f4e4 b2bc
000001a0: c3ad 22bd e770 8a3b 53ca cfbc 332a a13d
000001b0: c3b9 203c a5f1 a6bc b07e d3bb bd72 9f3c
000001c0: 4721 e73b 2c7e c9bc d929 26bc 1e00 2abc
000001d0: 2386 cabb bfcb 033e 5fab 91bc ab9c 64bc
000001e0: d15c 903c 210e 3e3c 6986 75bb ed18 973b
000001f0: 5954 dfbd aa91 893c 3f53 5fbb afb3 293c
00000200: 9bea cd3c b315 593e 1ea4 81bd 9a2f 9dbc
00000210: d735 9abc a68a 373d a496 5c3c b9db e0bc
00000220: 8f3a 953c 5aae 59bc b086 59bc 3b75 e5bd
00000230: 43ab 0cbd 67f2 4ebd f697 e43c 5afc 803d
00000240: 5f35 d63c 1bce 17ba 07ec 45bd 1023 e1b8
00000250: 2b59 883c ca8a 9bbd 2041 ae3d 3b5a 89bd
00000260: 9d95 4b3d 4dd7 be3c d894 993d 2d6d bfbd
00000270: fb0c 79bd bf17 153d 43bc f73c 6faf 643c
00000280: 4e97 7abd 4d77 b9bc f215 6d3d 5001 c13c
00000290: 0286 68bb 9ab0 313e cd79 8cbc dcef 683d
000002a0: bb4d e93c c5f1 a2bd 6dbd 8abd d87d 01bd
000002b0: 6145 e0bd 889a 023d 0e10 a6bc 119a 86bd
000002c0: 870d 3abd c114 5cbe 8514 c13c 93f5 123c
000002d0: 2eab 4fbc 8ebe b1bb 2185 cf3c 7a55 313c
000002e0: 4d73 f1bc 0c6a 6b3b ab43 eebc d049 743e
000002f0: b472 5f3d 4ec6 8f3d c847 283d 46ad 11bd
00000300: fc68 4b3c 39c4 f83d 658d a33d 96a8 aa3b
00000310: a41d 3bbc 5561 e73b 9e54 69be 8485 07bd
00000320: fe2e 87bc 1efa e53c f644 d53b e398 833c
00000330: 87b1 693c a179 23bd 522a f03c 220b 553c
00000340: a810 51bd c2c8 b73e 6d26 c23d 20f9 f73b
00000350: 6a59 94bc 521d 4e3c 2e6a 82bd 5531 253d
00000360: 20a1 463c 05d0 693b 1a82 afbc 0a73 b7be
00000370: 1b33 8bbd f14c 6cbd 15c3 653c 14c0 52bd
00000380: bbf5 b03b 8d4a bdbd 5752 733d f12a 8cbd
00000390: 5df3 343d 0e09 bb3d cc71 51bc f239 5c3d
000003a0: 93e3 633c 633f a9bb 3885 c2bc 666b dbbd
000003b0: 4c8c 813c 2c35 0b3c f8d3 803c d994 493c
000003c0: fd81 b6bb d2c3 85be 5c95 283e a917 2dbd
000003d0: 2f88 fe3c 8b74 2fbd dc23 b13d b56f be3d
000003e0: ea62 40bd 2a39 90bc b0e8 acbb d2e8 763e
000003f0: 08f0 213d c5c7 a13d 16fe 6e3c 1e01 44bc
0.0041208686 -0.1320685 -0.016764062 0.005002643 0.017379627 0.04233693 0.048162144 -0.032719888
0.0527357 0.00010132847 -0.0048889383 0.07595551 0.011927592 0.028069006 0.027141972 -0.007644468
0.044252038 0.021965215 -0.01351234 -0.11380138 -0.00080060546 0.06769446 -0.022007143 -0.0020337729
0.023436459 0.0021216325 -0.06908079 0.06091499 -0.04698245 0.020644685 0.0113445055 0.055912726
-0.016687183 -0.121972226 -0.05934394 0.015018195 -0.040568348 -0.041174404 0.114703536 -0.096585445
0.06845787 -0.027051179 -0.015581174 0.07601765 0.013307647 -0.036232147 -0.06901251 -0.028817039
-0.024724936 0.037703324 -0.07469007 0.021516614 0.044203557 0.03789863 0.06604698 -0.006816613
-0.026978267 0.03500609 0.052701388 -0.036719892 0.0051821643 -0.019912038 -0.00022578916 -0.03860527
-0.022638056 0.13500626 0.025997471 0.010353226 -0.013571757 -0.0028255295 0.0217283 -0.07528952
-0.009232015 -0.026047468 -0.03987774 -0.1159186 -0.024207467 -0.054452315 -0.0298076 -0.01686984
-0.034047812 -0.09815872 -0.09528717 -0.004167792 -0.0050489027 -0.0152465375 0.20651802 -0.0057723527
0.016219778 -0.031500503 -0.04584854 -0.014346419 -0.026172757 0.017549962 -0.01763265 0.013172253
0.029012676 0.025122022 0.05827762 -0.0066040372 -0.04565316 0.03471303 0.004980675 -0.021837689
-0.039716493 0.004224885 -0.02536503 0.07869377 0.009809914 -0.020378897 -0.0064543113 0.019463891
0.0070535275 -0.024596296 -0.010141813 -0.0103760045 -0.006180541 0.12870692 -0.017781911 -0.013953368
0.017622383 0.011600048 -0.0037464148 0.0046111257 -0.1090476 0.01679309 -0.0034076718 0.010357781
0.025136283 0.21199684 -0.06330131 -0.019187737 -0.018824501 0.04480996 0.01346365 -0.027448522
0.0182164 -0.013286198 -0.013276741 -0.112040006 -0.034343015 -0.05052414 0.027904492 0.06298132
0.026148496 -0.0005790905 -0.048320796 -0.00010735367 0.016644081 -0.07594831 0.08508515 -0.06706663
0.04970323 0.023296023 0.07499093 -0.093469955 -0.060803395 0.0363996 0.030241137 0.013957842
-0.06117945 -0.022639895 0.057882257 0.023560196 -0.0035480266 0.17352524 -0.017147923 0.056869373
0.028479448 -0.0795627 -0.06774411 -0.031614155 -0.10950733 0.031885654 -0.020271327 -0.065723546
-0.045423057 -0.21492292 0.023569355 0.008969682 -0.01267509 -0.005424327 0.025332035 0.010823602
-0.029473925 0.0035921363 -0.029085001 0.23856282 0.05455275 0.070202455 0.04108408 -0.035565637
0.012415167 0.121468015 0.07985953 0.0052080853 -0.011420641 0.0070611634 -0.22786185 -0.033086315
-0.0165019 0.028073367 0.006508465 0.016064113 0.014263517 -0.039910916 0.029317055 0.013003143
-0.051041275 0.35895354 0.094799854 0.00756754 -0.018109042 0.012580233 -0.063679084 0.04033025
0.012123376 0.0035676968 -0.021424342 -0.35829955 -0.06796857 -0.057690565 0.014023562 -0.05145271
0.005400387 -0.09242735 0.059404697 -0.06844128 0.0441774 0.091325864 -0.012783479 0.0537662
0.013909238 -0.005165027 -0.023745164 -0.10713844 0.01581397 0.008496564 0.015726075 0.012303554
-0.005569695 -0.26125962 0.16463226 -0.042258892 0.031070797 -0.042835753 0.08649418 0.0929865
-0.04696933 -0.017605383 -0.005276762 0.24112251 0.039535552 0.07899431 0.014586946 -0.011963157

conv2.0.conv2b.0.conv2.weight f4 [16, 1, 3, 3]
00000000: a997 243d 7f73 6e3c 32fe 5ebd 8213 c33d
00000010: 7d29 2b3d 826f 06be c646 0e3d e31e 6f3c
00000020: 4d34 90bd 7214 813c 9ddd 3e3e aa14 273d
00000030: ed90 48bc 24b5 0bbe da19 4ebd 6920 a83c
00000040: 88b8 87bd 61e8 443c ef2b 79bc dd0f fe3c
00000050: 063a b23c 030c 073c bc3b 3c3d 09d1 023d
00000060: 9414 25bc 6cc3 7b3d 7878 843c fc1d ac3b
00000070: 21af af3b 9e4b acbb b14a 54bd df90 4dbd
00000080: a7d8 37bd e80e 7fbb 61ae 78bb 011c bebb
00000090: 1c4e 8bbc 647f 3dbd ea3e 7a3d 1c33 8ebd
000000a0: 8bf7 96bd 3892 123e 91ed 853b bdc7 78bd
000000b0: 7817 803d bdf2 a43c 9fcf 473d 1cc5 7ebd
000000c0: 2cb1 483e f50f dd3c 60f4 81be 84c3 e43c
000000d0: 6248 1b3d 9577 7ebd ab77 43bc 532f f63c
000000e0: 6d74 45bb 4e12 2a3d a03d 9e3d f897 183d
000000f0: 6350 4fbd 74d3 65bd c193 79bd 3f02 acbc
00000100: d69b 65bd 5981 eebc 7c0b 87bd 5664 3e3e
00000110: 952a 33bc 4ea2 e0bc dfab f7bc dca0 18bd
00000120: 61d8 14bd 3bb0 383c 5f12 6dbd 7fe3 9f3c
00000130: 3735 153e 7a91 8a3d cd42 43bc f428 483b
00000140: f5e4 5bbd 3bc1 1c3c c079 863e a755 453d
00000150: ad7b 373c f571 543b a225 7d3c 0497 31bd
00000160: 0307 59be 5505 a7bd ee2c c13c b81e df3d
00000170: 0179 093d 2f48 983d 0e0f 9dbe fddc 033d
00000180: 121f 76bb 688c a5bc d7b3 96bb d3bf 05bd
00000190: a2c5 36bd 0076 cb3c abfb d6bd 6f99 4f3d
000001a0: 655c 393e e7af a2bd df48 b9bc e1c4 743d
000001b0: 7846 28ba dcae 8b3d 2968 67bc b2e0 3b3e
000001c0: 1094 21bc a1b5 92be b992 833c f957 8d3d
000001d0: 5721 14bc caa0 053d 44d0 59bd bc62 e03c
000001e0: 98b3 debc 793a f4bd d170 85bd 9929 0d3d
000001f0: 6167 1abd 2ce6 483d 243e 2fbd 1705 073e
00000200: 291d d2bc 9c2e e7bc 79b8 503e 2c22 2a3d
00000210: 3e16 98bb 5640 62be 4e21 4dbd 1345 a23c
00000220: 3a43 b5bc 6845 5c3c 733c af3b 0a74 cabd
00000230: ab1d 27bd 8d5b fe3b 4492 96bc 7353 16bc
0.040183697 0.014553904 -0.05444164 0.09525205 0.041787613 -0.13128474 0.034735464 0.014594766
-0.070412256 0.01575682 0.18639226 0.04079119 -0.012241584 -0.13643318 -0.050317623 0.020523267
-0.066269934 0.012018294 -0.0152082285 0.031013424 0.021756183 0.00824261 0.045955405 0.031937633
-0.010075707 0.061465666 0.016170725 0.005252598 0.005361453 -0.0052580377 -0.051829044 -0.050186988
-0.04488435 -0.0038918797 -0.0037945735 -0.005801678 -0.017005019 -0.046264067 0.061095156 -0.06943342
-0.07371434 0.1431359 0.004087158 -0.06073736 0.06254476 0.020135278 0.048781987 -0.062199697
0.19598836 0.026985148 -0.25381756 0.02792526 0.037910827 -0.06212576 -0.011930387 0.030051863
-0.003012921 0.041521363 0.07726598 0.037254304 -0.050613772 -0.05610986 -0.060931925 -0.020997165
-0.05605682 -0.029114412 -0.06593987 0.18592963 -0.010935445 -0.027421143 -0.030233322 -0.037262782
-0.036339168 0.011272485 -0.05787885 0.019517658 0.14571081 0.06766029 -0.011917782 0.0030541988
-0.053685147 0.009567554 0.26264763 0.048177388 0.01119892 0.0032416556 0.015450867 -0.04335691
-0.21194081 -0.08155314 0.023580994 0.10894531 0.033562664 0.07435643 -0.30675548 0.032193173
-0.003755514 -0.020208552 -0.0045990753 -0.03265364 -0.04462207 0.02483654 -0.104972206 0.050683435
0.18101652 -0.07943707 -0.022617755 0.05975807 -0.0006419192 0.06820461 -0.014123955 0.18347433
-0.009861961 -0.28654197 0.016061174 0.06901545 -0.009041152 0.032624044 -0.053177133 0.02739083
-0.027185246 -0.11925215 -0.06515659 0.0344635 -0.037696246 0.049047634 -0.04278387 0.13185535
-0.02564867 -0.028220467 0.2038287 0.041536495 -0.0046413234 -0.22094855 -0.05008059 0.019808328
-0.022126783 0.013444282 0.0053477823 -0.09885414 -0.040799778 0.0077623785 -0.018380292 -0.009175169

conv2.0.conv2b.1.bn.bias f4 [16]
00000000: 5e22 bea9 b81b 6abc cf0f a03e 8d1b 9a3c
00000010: 09c7 603f 99bc cabc 9f13 06bc 38a8 b13e
00000020: 06ce a1bc 4ea2 a2bc 6760 bc3d 8541 003d
00000030: 2869 623e 2260 40bc 1995 44b3 718c 8ebc
-8.443657e-14 -0.014288835 0.3126206 0.018811965 0.87803704 -0.024748133 -0.008183389 0.34698653
-0.01975156 -0.019852784 0.09198075 0.031312484 0.22110426 -0.01174167 -4.577041e-08 -0.017400952

conv2.0.conv2b.1.bn.running_mean f4 [16]
00000000: 0400 0080 18d0 babb bb7b 323a 3e76 c13a
00000010: b619 f338 3d7f 723a a756 2dbb f373 17bb
00000020: 4b42 9db9 7af4 23b9 c0f0 d4b8 1d9d 66b9
00000030: 2f50 0639 47f2 23b8 0400 0000 d2eb 543b
-6e-45 -0.0057010762 0.00068085984 0.001475997 0.00011591932 0.00092505274 -0.0026449354 -0.0023109883
-0.00029994766 -0.00015635966 -0.00010153791 -0.00021993039 0.00012809107 -3.9087867e-05 6e-45 0.0032489193

conv2.0.conv2b.1.bn.running_var f4 [16]
00000000: 0400 0000 36e9 d036 a506 aa37 0d1d b236
00000010: 16a3 e136 798e aa37 2bcf 3b36 8bdd a038
00000020: 7fd1 c835 5d4f 3e36 0cb9 e136 84e0 a536
00000030: 3bb6 ad37 1e01 6036 0400 0000 dd1b 5837
6e-45 6.2260324e-06 2.0268673e-05 5.3081953e-06 6.7245082e-06 2.0331923e-05 2.798576e-06 7.67066e-05
1.4962133e-06 2.8358402e-06 6.727065e-06 4.9435203e-06 2.0708065e-05 3.3379251e-06 6e-45 1.2881091e-05

conv2.0.conv2b.1.bn.weight f4 [16]
00000000: f914 0080 18d5 103e 0516 493e e18a b63d
00000010: 6d85 153d 398c a43e 4795 b13d 74c0 a03e
00000020: 38e2 e63d 629c f73d 3f8f cb3d e4d1 b33d
00000030: 9151 ae3d 28cd cb3d 4022 0000 6c75 503e
-7.524e-42 0.14143789 0.19637306 0.08913208 0.036504198 0.3213823 0.086710505 0.3139683
0.112736166 0.120903745 0.099394314 0.08780268 0.08511651 0.0995124 1.2287e-41 0.20357293

conv2.0.conv2b.1.conv1.weight f4 [16, 16, 1, 1]
00000000: af0b 0000 710f 0080 901b 0080 6f1d 0000
00000010: ac04 0000 db04 0080 9409 0000 271b 0080
00000020: 741d 0080 6c01 0000 3713 0000 0819 0000
00000030: cd0a 0000 0114 0000 e911 0000 8212 0080
00000040: f30d 4ebb 9c73 5e3d 0fe8 d1bb bcb0 75bd
00000050: 239e 1b3c 8dbb 7fbc cbe4 43bc 3d3f d73c
00000060: 3b29 81bb aca5 1abe a1a3 653c f44c 5cba
00000070: f3b5 70bc 600b 59bc cd57 0d3b 5e34 93bc
00000080: 8d66 133c e985 42bd 63af 0c3d d00c 13bd
00000090: 038a a63c baac 09bc 8650 5f3c 8f71 ed3d
000000a0: f03e cabc 7f2a 96ba 4028 1ebe 8125 103c
000000b0: d541 af3b 6a9a f3bc ad29 433d 4884 ab3b
000000c0: 57da 3e3b f828 c53d dbe5 23b9 b1d8 8e3c
000000d0: 9c6f f93b b8f6 813b 6df5 0dbe 70bd d2bc
000000e0: 69a4 d9bc a092 7fbc 7503 55bd 2a9e a33c
000000f0: 5d57 2b3b 0a63 be3a 6a67 bbbd a18f ac3c
00000100: 9580 af3d 26ff 71bb b241 063c 8d55 a73c
00000110: 0550 333d 90b9 44bc 8e2b 21bc c874 ecbb
00000120: 2140 09bb 80f6 57bc acb6 593c e9b6 3abe
00000130: 59dc e73c ceec c53c 824a 143c 5090 093c
00000140: f14b d1bb de47 45bd c8c7 183e a1d1 233d
00000150: 4cb4 493d 2173 933c c00c 8fbd aabc 113d
00000160: 5a61 2b3e 88be eabc b75d acbc 5a21 00bc
00000170: 3d87 973b 8e48 f3bd 7513 34bc 6ba6 0dbd
00000180: 2c65 39bd 3888 90bc 444a 63bc 7136 58bd
00000190: 0ffa 573d 1aac 4cbd faf5 6fbc 709b 573b
000001a0: 29c6 623c c49b c0bc 8e99 7b3c 0c45 47bd
000001b0: 62a4 533d a5ed 6bbb 3522 c5bb 5321 b8bc
000001c0: 4792 c8bc a531 bb3c 8b72 1c3e 9acd 97bd
000001d0: 9598 f53d 133b 373d 3a6f a03c 60c6 3b3d
000001e0: e059 b73d 90c2 943c 2aa4 803c d796 58bd
000001f0: 9f42 023d b595 81be 5cb1 01bc 7b78 493e
00000200: d496 d6bc 7c03 59bc af7d ae3c 393b b4bc
00000210: d8e0 9dbb bdf9 ac3c f930 e13b 8ae8 d33c
00000220: 5c7d 993d 7327 74bb 2b00 883d 2032 4e3c
00000230: ef89 2a3d af7d 543b f158 86bc d1f8 133d
00000240: 4f2f efbc ec4c cdbd 6db8 cf3c fdb4 7cbc
00000250: 7eeb cabc 75fe 1cbc 6956 c03c 6683 30bb
00000260: 74f7 0ebd 90de 303c aaa5 32bd 825e 533b
00000270: f494 91bc b371 90bc fa0a 5b3d ae7a ea3c
00000280: b257 54bb 1f1b 4ebd 1afb 173d 093e 5a3c
00000290: 4aa5 eb3c 0f38 433a e674 b9bc f4ee 123c
000002a0: 704c b0bc 287a b639 30d7 eb3b 7468 6b3c
000002b0: c4a4 0cba ad22 0cbd 92b5 0e3e 75a6 3bbc
000002c0: c7df 99bc 06aa 8fbc ec44 a43b fdeb dc3c
000002d0: e719 913a c159 0e3c 34d6 393d 50a9 15bd
000002e0: 32aa 3cbb 318a 023e 7e09 09bc e15c 89bc
000002f0: 0c4b 9e3a 5d13 883b ef78 cabd 5732 a53c
00000300: 63ea 753d 7181 e5bb e6ef 8f3b 3f75 c63c
00000310: 0eb8 1b3a 23dd eb3d 6bd9 933c 1e46 bfbc
00000320: 071a eabc a90b 07b9 e605 c4b9 2b61 84bd
00000330: ce03 08be acff b9bb 3081 3e3c 9bd4 863c
00000340: 7089 20b8 0607 2cbb 3593 803c f4ef 87bd
00000350: 4b1a 163d 1785 673d b29c ffbc c2df e03c
00000360: 2600 ecbc 5dc0 6dbd 1237 a5bb d890 393c
00000370: 8c25 7bbb b444 2a3d 970e 53bc f0c0 7c3d
00000380: ca20 0080 f51e 0080 590d 0080 b313 0080
00000390: 132b 0080 352e 0080 ea33 0000 2424 0000
000003a0: 5e31 0080 0a24 0000 5131 0000 f228 0000
000003b0: 3910 0000 e235 0080 bd3d 0080 4114 0080
000003c0: f0a4 e1bd 48a7 003c 9902 473c 3354 153d
000003d0: 4811 90bd 9cd0 d3bd c16b 613c 5499 e9bc
000003e0: 3e8d 36bc b2cf 43ba 0f1f e1bc 7a3d 82bc
000003f0: f361 d53d 78c8 8dbb a0ca f8bb 5bd3 81ba
4.191e-42 -5.54e-42 -9.888e-42 1.0559e-41 1.676e-42 -1.742e-42 3.436e-42 -9.74e-42
-1.0566e-41 5.1e-43 6.893e-42 8.98e-42 3.875e-42 7.176e-42 6.425e-42 -6.64e-42
-0.003144142 0.054309472 -0.0064058374 -0.059983 0.009498152 -0.01560868 -0.011956404 0.026275272
-0.0039416826 -0.15102261 0.014016063 -0.0008403801 -0.014691818 -0.013247341 0.0021567226 -0.017969307
0.008996618 -0.047490988 0.03434695 -0.03590089 0.020329481 -0.008402998 0.013630038 0.11593925
-0.024688214 -0.0011456757 -0.15445042 0.008798004 0.005348424 -0.029736716 0.047647167 0.005234275
0.002912184 0.09626955 -0.00015630519 0.01743731 0.007612182 0.0039661787 -0.13863154 -0.025725096
-0.026567655 -0.015598923 -0.05200525 0.01997288 0.0026144602 0.0014525366 -0.09150584 0.021064581
0.08569447 -0.0036925762 0.008194374 0.020426536 0.043777484 -0.012007132 -0.009837044 -0.00721607
-0.0020942765 -0.013181329 0.013288181 -0.18233837 0.028303312 0.024160769 0.009050967 0.008396223
-0.0063872267 -0.04816424 0.1491996 0.03999484 0.04924421 0.017999234 -0.06984854 0.035580315
0.16736355 -0.028655306 -0.02104078 -0.007820452 0.004624276 -0.11879073 -0.010990967 -0.034582537
-0.0452625 -0.01764308 -0.013872687 -0.052786294 0.05272871 -0.049968816 -0.014646048 0.0032899044
0.01384119 -0.023511775 0.0153564345 -0.048649833 0.05167044 -0.0035999801 -0.0060160407 -0.022476828
-0.024483813 0.02285082 0.1527807 -0.07412262 0.11991993 0.044734072 0.019584287 0.045843482
0.08952689 0.01815918 0.01570328 -0.052878227 0.031801816 -0.2530953 -0.007915821 0.19674866
-0.026194967 -0.01324546 0.021300165 -0.022000896 -0.004818063 0.021115178 0.006872293 0.02586772
0.074946135 -0.003725496 0.06640657 0.012585193 0.04163545 0.0032423546 -0.016399832 0.03612596
-0.029197363 -0.10024437 0.025356496 -0.01542401 -0.024770495 -0.009582152 0.023478704 -0.0026933788
-0.03490396 0.010795251 -0.04361502 0.0032252376 -0.017771222 -0.017632341 0.053477265 0.028622951
-0.0032400903 -0.050318833 0.037104703 0.013320454 0.02876534 0.0007447013 -0.02263875 0.008968104
-0.021520823 0.0003480476 0.007197283 0.014368165 -0.0005365128 -0.034212757 0.13936451 -0.011453261
-0.018783463 -0.017537128 0.005013099 0.026967997 0.0011070342 0.008688391 0.045370296 -0.036538422
-0.0028787968 0.12748028 -0.0083640795 -0.01676792 0.0012076809 0.004152699 -0.098863475 0.020165605
0.06003798 -0.007003956 0.004392612 0.02422583 0.0005940207 0.11516788 0.018048009 -0.023348864
-0.028576864 -0.00012878947 -0.00037388428 -0.06463846 -0.13282701 -0.0056762304 0.01162748 0.0164588
-3.827497e-05 -0.0026249303 0.015695194 -0.06637564 0.03664617 0.05652341 -0.031202648 0.027450446
-0.028808665 -0.05804478 -0.0050419653 0.011326037 -0.003832194 0.041569427 -0.012881896 0.061707437
-1.1762e-41 -1.1105e-41 -4.788e-42 -7.067e-42 -1.5452e-41 -1.6576e-41 1.8623e-41 1.2965e-41
-1.771e-41 1.2928e-41 1.7691e-41 1.4688e-41 5.82e-42 -1.933e-41 -2.2148e-41 -7.266e-42
-0.110177875 0.007852383 0.012146615 0.03645725 -0.07034546 -0.103425235 0.013758601 -0.028515495
-0.011142073 -0.00074696087 -0.02748063 -0.015898455 0.10419073 -0.0043268763 -0.007592514 -0.0009904908
